…
          "name": "stdout",
          "text": [
            "Downloading data from https://storage.googleapis.com/tensorflow/keras-applications/resnet/resnet152v2_weights_tf_dim_ordering_tf_kernels_notop.h5\n",
            "234545216/234545216 [==============================] - 11s 0us/step\n",
            "Model: \"sequential\"\n",
            "_________________________________________________________________\n",
            " Layer (type)                Output Shape              Param #   \n",
            "=================================================================\n",
            " lambda (Lambda)             (None, 224, 224, 3)       0         \n",
            "                                                                 \n",
            " resnet152v2 (Functional)    (None, 7, 7, 2048)        58331648  \n",
            "                                                                 \n",
            " global_average_pooling2d (  (None, 2048)              0         \n",
            " GlobalAveragePooling2D)                                         \n",
            "                                                                 \n",
            " dropout (Dropout)           (None, 2048)              0         \n",
            "                                                                 \n",
            " dense (Dense)               (None, 1024)              2098176   \n",
            "                                                                 \n",
            " dropout_1 (Dropout)         (None, 1024)              0         \n",
            "                                                                 \n",
            " dense_1 (Dense)             (None, 256)               262400    \n",
            "                                                                 \n",
            " dropout_2 (Dropout)         (None, 256)               0         \n",
            "                                                                 \n",
            " dense_2 (Dense)             (None, 4)                 1028      \n",
            "                                                                 \n",
            "=================================================================\n",
            "Total params: 60693252 (231.53 MB)\n",
            "Trainable params: 58756100 (224.14 MB)\n",
            "Non-trainable params: 1937152 (7.39 MB)\n",
            "_________________________________________________________________\n"
…
